…
age*2 - 1.0\n...     if mode == 'uniform':\n...         input_z = tf.random.uniform(\n...             shape=(z_size,), minval=-1.0, maxval=1.0)\n...     elif mode == 'normal':\n...         input_z = tf.random.normal(shape=(z_size,))\n...     return input_z, image \n```", "```py\n>>> gen_model = make_dcgan_generator()\n>>> gen_model.summary()\nModel: \"sequential_2\"\n_________________________________________________________________\nLayer (type)                 Output Shape              Param #   \n=================================================================\ndense_1 (Dense)              (None, 6272)              125440    \n_________________________________________________________________\nbatch_normalization_7 (Batch (None, 6272)              25088     \n_________________________________________________________________\nleaky_re_lu_7 (LeakyReLU)    (None, 6272)              0         \n_________________________________________________________________\nreshape_2 (Reshape)          (None, 7, 7, 128)         0         \n_________________________________________________________________\nconv2d_transpose_4 (Conv2DTr (None, 7, 7, 128)         409600    \n_________________________________________________________________\nbatch_normalization_8 (Batch (None, 7, 7, 128)         512       \n_________________________________________________________________\nleaky_re_lu_8 (LeakyReLU)    (None, 7, 7, 128)         0         \n_________________________________________________________________\nconv2d_transpose_5 (Conv2DTr (None, 14, 14, 64)        204800    \n_________________________________________________________________\nbatch_normalization_9 (Batch (None, 14, 14, 64)        256       \n_________________________________________________________________\nleaky_re_lu_9 (LeakyReLU)    (None, 14, 14, 64)        0         \n_________________________________________________________________\nconv2d_transpose_6 (Conv2DTr (None, 28, 28, 32)        51200     \n_________________________________________________________________\nbatch_normalization_10 (Batc (None, 28, 28, 32)        128       \n_________________________________________________________________\nleaky_re_lu_10 (LeakyReLU)   (None, 28, 28, 32)        0         \n_________________________________________________________________\nconv2d_transpose_7 (Conv2DTr (None, 28, 28, 1)         800       \n=================================================================\nTotal params: 817,824\nTrainable params: 804,832\nNon-trainable params: 12,992\n_________________________________________________________________ \n```", "```py\n>>> disc_model = make_dcgan_discriminator()\n>>> disc_model.summary()\nModel: \"sequential_3\"\n_________________________________________________________________\nLayer (type)                 Output Shape              Param #   \n=================================================================\nconv2d_4 (Conv2D)            (None, 28, 28, 64)        1664      \n_________________________________________________________________\nbatch_normalization_11 (Batc (None, 28, 28, 64)        256       \n_________________________________________________________________\nleaky_re_lu_11 (LeakyReLU)   (None, 28, 28, 64)        0         \n_________________________________________________________________\nconv2d_5 (Conv2D)            (None, 14, 14, 128)       204928    \n_________________________________________________________________\nbatch_normalization_12 (Batc (None, 14, 14, 128)       512       \n_________________________________________________________________\nleaky_re_lu_12 (LeakyReLU)   (None, 14, 14, 128)       0         \n_________________________________________________________________\ndropout_2 (Dropout)          (None, 14, 14, 128)       0         \n_________________________________________________________________\nconv2d_6 (Conv2D)            (None, 7, 7, 256)         819456    \n_________________________________________________________________\nbatch_normalization_13 (Batc (None, 7, 7, 256)         1024      \n_________________________________________________________________\nleaky_re_lu_13 (LeakyReLU)   (None, 7, 7, 256)         0         \n_________________________________________________________________\ndropout_3 (Dropout)          (None, 7, 7, 256)         0         \n_________________________________________________________________\nconv2d_7 (Conv2D)            (None, 1, 1, 1)           12545     \n_________________________________________________________________\nreshape_3 (Reshape)          (None, 1)                 0         \n=================================================================\nTotal params: 1,040,385\nTrainable params: 1,039,489\nNon-trainable params: 896\n_________________________________________________________________ \n```", "```py\n>>> num_epochs = 100\n>>> batch_size = 128\n>>> image_size = (28, 28)\n>>> z_size = 20\n>>> mode_x = 'uniform'\n>>> lambda_gp = 10.0\n>>> tf.random.set_seed(1)
…
