…
es=1152, out_features=64, bias=True)\n  (relu4): ReLU()\n  (fc2): Linear(in_features=64, out_features=10, bias=True)\n  (output): Softmax(dim=1)\n)_________________________________________________________________ \n```", "```py\n>>> pip install torchsummary\n>>> from torchsummary import summary\n>>> summary(model, input_size=(1, 28, 28), batch_size=-1, device=\"cpu\")\n----------------------------------------------------------------\n        Layer (type)               Output Shape         Param #\n================================================================\n            Conv2d-1           [-1, 32, 26, 26]             320\n              ReLU-2           [-1, 32, 26, 26]               0\n         MaxPool2d-3           [-1, 32, 13, 13]               0\n            Conv2d-4           [-1, 64, 11, 11]          18,496\n              ReLU-5           [-1, 64, 11, 11]               0\n         MaxPool2d-6             [-1, 64, 5, 5]               0\n            Conv2d-7            [-1, 128, 3, 3]          73,856\n              ReLU-8            [-1, 128, 3, 3]               0\n           Flatten-9                 [-1, 1152]               0\n           Linear-10                   [-1, 64]          73,792\n             ReLU-11                   [-1, 64]               0\n           Linear-12                   [-1, 10]             650\n          Softmax-13                   [-1, 10]               0\n================================================================\nTotal params: 167,114\nTrainable params: 167,114\nNon-trainable params: 0\n----------------------------------------------------------------\nInput size (MB): 0.00\nForward/backward pass size (MB): 0.53\nParams size (MB): 0.64\nEstimated Total Size (MB): 1.17\n---------------------------------------------------------------- \n```",
…
